…
            "Current training session folder is /content/MODEL/2022-09-09_06-51-11\n",
            "\n",
            "\n",
            "Model: \"yolo\"\n",
            "_________________________________________________________________\n",
            " Layer (type)                Output Shape              Param #   \n",
            "=================================================================\n",
            " input_1 (InputLayer)        [(None, 224, 224, 3)]     0         \n",
            "                                                                 \n",
            " conv1_pad (ZeroPadding2D)   (None, 226, 226, 3)       0         \n",
            "                                                                 \n",
            " conv1 (Conv2D)              (None, 112, 112, 24)      648       \n",
            "                                                                 \n",
            " conv1_bn (BatchNormalizatio  (None, 112, 112, 24)     96        \n",
            " n)                                                              \n",
            "                                                                 \n",
            " conv1_relu (ReLU)           (None, 112, 112, 24)      0         \n",
            "                                                                 \n",
            " conv_dw_1 (DepthwiseConv2D)  (None, 112, 112, 24)     216       \n",
            "                                                                 \n",
            " conv_dw_1_bn (BatchNormaliz  (None, 112, 112, 24)     96        \n",
            " ation)                                                          \n",
            "                                                                 \n",
            " conv_dw_1_relu (ReLU)       (None, 112, 112, 24)      0         \n",
            "                                                                 \n",
            " conv_pw_1 (Conv2D)          (None, 112, 112, 48)      1152      \n",
            "                                                                 \n",
            " conv_pw_1_bn (BatchNormaliz  (None, 112, 112, 48)     192       \n",
            " ation)                                                          \n",
            "                                                                 \n",
            " conv_pw_1_relu (ReLU)       (None, 112, 112, 48)      0         \n",
            "                                                                 \n",
            " conv_pad_2 (ZeroPadding2D)  (None, 114, 114, 48)      0         \n",
            "                                                                 \n",
            " conv_dw_2 (DepthwiseConv2D)  (None, 56, 56, 48)       432       \n",
            "                                                                 \n",
            " conv_dw_2_bn (BatchNormaliz  (None, 56, 56, 48)       192       \n",
            " ation)                                                          \n",
            "                                                                 \n",
            " conv_dw_2_relu (ReLU)       (None, 56, 56, 48)        0         \n",
            "                                                                 \n",
            " conv_pw_2 (Conv2D)          (None, 56, 56, 96)        4608      \n",
            "                                                                 \n",
            " conv_pw_2_bn (BatchNormaliz  (None, 56, 56, 96)       384       \n",
            " ation)                                                          \n",
            "                                                                 \n",
            " conv_pw_2_relu (ReLU)       (None, 56, 56, 96)        0         \n",
            "                                                                 \n",
            " conv_dw_3 (DepthwiseConv2D)  (None, 56, 56, 96)       864       \n",
            "                                                                 \n",
            " conv_dw_3_bn (BatchNormaliz  (None, 56, 56, 96)       384       \n",
            " ation)                                                          \n",
            "                                                                 \n",
            " conv_dw_3_relu (ReLU)       (None, 56, 56, 96)        0         \n",
            "                                                                 \n",
            " conv_pw_3 (Conv2D)          (None, 56, 56, 96)        9216      \n",
            "                                                                 \n",
            " conv_pw_3_bn (BatchNormaliz  (None, 56, 56, 96)       384       \n",
            " ation)                                                          \n",
            "                                                                 \n",
            " conv_pw_3_relu (ReLU)       (None, 56, 56, 96)        0         \n",
            "                                                                 \n",
            " conv_pad_4 (ZeroPadding2D)  (None, 58, 58, 96)        0         \n",
            "                                                                 \n",
            " conv_dw_4 (DepthwiseConv2D)  (None, 28, 28, 96)       864       \n",
            "                                                                 \n",
            " conv_dw_4_bn (BatchNormaliz  (None, 28, 28, 96)       384       \n",
            " ation)                                                          \n",
            "                                                                 \n",
            " conv_dw_4_relu (ReLU)       (None, 28, 28, 96)        0         \n",
            "                                                                 \n",
            " conv_pw_4 (Conv2D)          (None, 28, 28, 192)       18432     \n",
            "                                                                 \n",
            " conv_pw_4_bn (BatchNormaliz  (None, 28, 28, 192)      768       \n",
            " ation)                                                          \n",
            "                                                                 \n",
            " conv_pw_4_relu (ReLU)       (None, 28, 28, 192)       0         \n",
            "                                                                 \n",
            " conv_dw_5 (DepthwiseConv2D)  (None, 28, 28, 192)      1728      \n",
            "                                                                 \n",
            " conv_dw_5_bn (BatchNormaliz  (None, 28, 28, 192)      768       \n",
            " ation)                                                          \n",
            "                                                                 \n",
            " conv_dw_5_relu (ReLU)       (None, 28, 28, 192)       0         \n",
            "                                                                 \n",
            " conv_pw_5 (Conv2D)          (None, 28, 28, 192)       36864     \n",
            "                                                                 \n",
            " conv_pw_5_bn (BatchNormaliz  (None, 28, 28, 192)      768       \n",
            " ation)                                                          \n",
            "                                                                 \n",
            " conv_pw_5_relu (ReLU)       (None, 28, 28, 192)       0         \n",
            "                                                                 \n",
            " conv_pad_6 (ZeroPadding2D)  (None, 30, 30, 192)       0         \n",
            "                                                                 \n",
            " conv_dw_6 (DepthwiseConv2D)  (None, 14, 14, 192)      1728      \n",
            "                                                                 \n",
            " conv_dw_6_bn (BatchNormaliz  (None, 14, 14, 192)      768       \n",
            " ation)                                                          \n",
            "                                                                 \n",
            " conv_dw_6_relu (ReLU)       (None, 14, 14, 192)       0         \n",
            "                                                                 \n",
            " conv_pw_6 (Conv2D)          (None, 14, 14, 384)       73728     \n",
            "                                                                 \n",
            " conv_pw_6_bn (BatchNormaliz  (None, 14, 14, 384)      1536      \n",
            " ation)                                                          \n",
            "                                                                 \n",
            " conv_pw_6_relu (ReLU)       (None, 14, 14, 384)       0         \n",
            "                                                                 \n",
            " conv_dw_7 (DepthwiseConv2D)  (None, 14, 14, 384)      3456      \n",
            "                                                                 \n",
            " conv_dw_7_bn (BatchNormaliz  (None, 14, 14, 384)      1536      \n",
            " ation)                                                          \n",
            "                                                                 \n",
            " conv_dw_7_relu (ReLU)       (None, 14, 14, 384)       0         \n",
            "                                                                 \n",
            " conv_pw_7 (Conv2D)          (None, 14, 14, 384)       147456    \n",
            "                                                                 \n",
            " conv_pw_7_bn (BatchNormaliz  (None, 14, 14, 384)      1536      \n",
            " ation)                                                          \n",
            "                                                                 \n",
            " conv_pw_7_relu (ReLU)       (None, 14, 14, 384)       0         \n",
            "                                                                 \n",
            " conv_dw_8 (DepthwiseConv2D)  (None, 14, 14, 384)      3456      \n",
            "                                                                 \n",
            " conv_dw_8_bn (BatchNormaliz  (None, 14, 14, 384)      1536      \n",
            " ation)                                                          \n",
            "                                                                 \n",
            " conv_dw_8_relu (ReLU)       (None, 14, 14, 384)       0         \n",
            "                                                                 \n",
            " conv_pw_8 (Conv2D)          (None, 14, 14, 384)       147456    \n",
            "                                                                 \n",
            " conv_pw_8_bn (BatchNormaliz  (None, 14, 14, 384)      1536      \n",
            " ation)                                                          \n",
            "                                                                 \n",
            " conv_pw_8_relu (ReLU)       (None, 14, 14, 384)       0         \n",
            "                                                                 \n",
            " conv_dw_9 (DepthwiseConv2D)  (None, 14, 14, 384)      3456      \n",
            "                                                                 \n",
            " conv_dw_9_bn (BatchNormaliz  (None, 14, 14, 384)      1536      \n",
            " ation)                                                          \n",
            "                                                                 \n",
            " conv_dw_9_relu (ReLU)       (None, 14, 14, 384)       0         \n",
            "                                                                 \n",
            " conv_pw_9 (Conv2D)          (None, 14, 14, 384)       147456    \n",
            "                                                                 \n",
            " conv_pw_9_bn (BatchNormaliz  (None, 14, 14, 384)      1536      \n",
            " ation)                                                          \n",
            "                                                                 \n",
            " conv_pw_9_relu (ReLU)       (None, 14, 14, 384)       0         \n",
            "                                                                 \n",
            " conv_dw_10 (DepthwiseConv2D  (None, 14, 14, 384)      3456      \n",
            " )                                                               \n",
            "                                                                 \n",
            " conv_dw_10_bn (BatchNormali  (None, 14, 14, 384)      1536      \n",
            " zation)                                                         \n",
            "                                                                 \n",
            " conv_dw_10_relu (ReLU)      (None, 14, 14, 384)       0         \n",
            "                                                                 \n"
          ]
        },
        {
          "output_type": "stream",
          "name": "stderr",
          "text": [
            "/usr/local/lib/python3.7/dist-packages/keras/optimizer_v2/adam.py:105: UserWarning: The `lr` argument is deprecated, use `learning_rate` instead.\n",
            "  super(Adam, self).__init__(name, **kwargs)\n"
          ]
        },
        {
          "output_type": "stream",
          "name": "stdout",
          "text": [
            " conv_pw_10 (Conv2D)         (None, 14, 14, 384)       147456    \n",
            "                                                                 \n",
            " conv_pw_10_bn (BatchNormali  (None, 14, 14, 384)      1536      \n",
            " zation)                                                         \n",
            "                                                                 \n",
            " conv_pw_10_relu (ReLU)      (None, 14, 14, 384)       0         \n",
            "                                                                 \n",
            " conv_dw_11 (DepthwiseConv2D  (None, 14, 14, 384)      3456      \n",
            " )                                                               \n",
            "                                                                 \n",
            " conv_dw_11_bn (BatchNormali  (None, 14, 14, 384)      1536      \n",
            " zation)                                                         \n",
            "                                                                 \n",
            " conv_dw_11_relu (ReLU)      (None, 14, 14, 384)       0         \n",
            "                                                                 \n",
            " conv_pw_11 (Conv2D)         (None, 14, 14, 384)       147456    \n",
            "                                                                 \n",
            " conv_pw_11_bn (BatchNormali  (None, 14, 14, 384)      1536      \n",
            " zation)                                                         \n",
            "                                                                 \n",
            " conv_pw_11_relu (ReLU)      (None, 14, 14, 384)       0         \n",
            "                                                                 \n",
            " conv_pad_12 (ZeroPadding2D)  (None, 16, 16, 384)      0         \n",
            "                                                                 \n",
            " conv_dw_12 (DepthwiseConv2D  (None, 7, 7, 384)        3456      \n",
            " )                                                               \n",
            "                                                                 \n",
            " conv_dw_12_bn (BatchNormali  (None, 7, 7, 384)        1536      \n",
            " zation)                                                         \n",
            "                                                                 \n",
            " conv_dw_12_relu (ReLU)      (None, 7, 7, 384)         0         \n",
            "                                                                 \n",
            " conv_pw_12 (Conv2D)         (None, 7, 7, 768)         294912    \n",
            "                                                                 \n",
            " conv_pw_12_bn (BatchNormali  (None, 7, 7, 768)        3072      \n",
            " zation)                                                         \n",
            "                                                                 \n",
            " conv_pw_12_relu (ReLU)      (None, 7, 7, 768)         0         \n",
            "                                                                 \n",
            " conv_dw_13 (DepthwiseConv2D  (None, 7, 7, 768)        6912      \n",
            " )                                                               \n",
            "                                                                 \n",
            " conv_dw_13_bn (BatchNormali  (None, 7, 7, 768)        3072      \n",
            " zation)                                                         \n",
            "                                                                 \n",
            " conv_dw_13_relu (ReLU)      (None, 7, 7, 768)         0         \n",
            "                                                                 \n",
            " conv_pw_13 (Conv2D)         (None, 7, 7, 768)         589824    \n",
            "                                                                 \n",
            " conv_pw_13_bn (BatchNormali  (None, 7, 7, 768)        3072      \n",
            " zation)                                                         \n",
            "                                                                 \n",
            " conv_pw_13_relu (ReLU)      (None, 7, 7, 768)         0         \n",
            "                                                                 \n",
            " detection_layer_60 (Conv2D)  (None, 7, 7, 60)         46140     \n",
            "                                                                 \n",
            " reshape (Reshape)           (None, 7, 7, 5, 12)       0         \n",
            "                                                                 \n",
            "=================================================================\n",
            "Total params: 1,879,116\n",
            "Trainable params: 1,862,700\n",
            "Non-trainable params: 16,416\n",
            "_________________________________________________________________\n"
          ]
…
